try/best_agent_path.pt (torch, 15064 bytes, 6 tensors)

hidden.weight f4 [50, 6]
00000000: 6a65 033d 5d49 383f c376 1d3f 684c 333f
00000010: 0dc4 973f df2b 92bf b596 1d3e 3604 01bf
00000020: 4726 983e 92da 53bd ae0a 1cbf 7882 a5bf
00000030: 7f4e 4abe 12bf aabe e547 22bf 4177 253c
00000040: 194b 89be fd31 bd3f c460 0bbe 59bf 403e
00000050: 8d7d 34be 3c58 54be c6a8 653d 1798 7b3f
00000060: 7339 cabf cbcb 9d3f 494f 43bd 8718 dcbd
00000070: 5d5a 84be 8539 6bbf 7239 a9be 7dfe 45bf
00000080: 185f 78be a55d 333f 98e1 663f 34b6 443f
00000090: b605 6a3f 2956 9cbf 8060 61bf a697 e1bd
000000a0: 26e8 29bf 66b6 1640 fb5a 2ebf 08c0 82bf
000000b0: a057 c93f 67b2 7abe b358 f0be faa6 e9be
000000c0: f6c3 cd3e acd8 be3f 78a3 953d a352 0f3f
000000d0: 5ec7 43bd 5b44 98bf fbf5 513f b61a 7d3f
000000e0: 3425 883f f555 40be 236d fcbe bac8 19c0
000000f0: fe24 643c d401 3f3f 3417 d9bf 2a41 a0bf
00000100: 797f c1be 60cd 183f 9a3b 103e a3df 563e
00000110: 9339 a93f 8bec 3dbf 7105 2e3f 01c2 8bbf
00000120: 8981 f9bd 81fd 66bf 25db a33c 7d73 dabe
00000130: 3dcd 1fbf a840 87bf f9de 943f 1441 023f
00000140: 058e ff3e a125 8a3f 402e 89bf c04c ebbe
00000150: 9823 183e 21bc 3abf a4bc 77bf b226 623f
00000160: e585 5dbe e33e a3bf d6c8 b2be 434e acbd
00000170: 7b8c 3dbf 2820 1a3f 1fd5 92be 934b b33e
00000180: 0153 94be 9dd9 debd ecf9 acbf 5c74 123f
00000190: fb5a 80be 9aeb 03bf 4929 433f f37d e53e
000001a0: b8be cdbe 64c1 b0be a9c9 92bf 98e0 cd3f
000001b0: d019 843e c1f5 af3e 7c20 ed3f c63d 3a3e
000001c0: 4f69 4fbe aac3 f0be e9db c53f 6863 7a3e
000001d0: 0473 3c3f c703 a73f eabf ae3f a5cf 3abe
000001e0: dbf2 75bf af95 203f 5807 e43c c56e b63f
000001f0: cd6b 4a3f c6d9 4cbf 651b 883f 600f 02bf
00000200: a643 7e3f b069 823f 1527 ed3d cca4 bbbe
00000210: 1593 f8be 34f0 df3e d823 9cbe b963 143d
00000220: 4e3a 8abf f17a 8ebf 4cd2 e13d 7426 913d
00000230: 78a6 3d3f 2679 cd3d 4ae8 7cbf 9f09 72bf
00000240: 0aa2 0b3f 5334 da3d 7efc 7b3d df53 6d3f
00000250: 60a1 86be 3706 153e 94b1 e7be 0043 1f3f
00000260: baa3 c6be 3296 3ebf b43e 09bf a277 843d
00000270: 9e63 aebf 5d4a e1bc 38f4 be3f b042 8e3e
00000280: 3a95 66bf 133c 7ebf 35c5 683f 31a6 98be
00000290: e265 c7bf 81a8 2fbf 74c1 003f 7538 5ebd
000002a0: a000 4bbf 4a50 6e3f 5004 923f d261 71bd
000002b0: f299 96bf 1e97 b9be 59bb 44be b2d0 a6bf
000002c0: 8139 40bf 9b83 6a3f 0f1f e1bf 59f8 de3e
000002d0: 681b 10bf bfc3 553b cb96 15bd 53f9 a93f
000002e0: 1765 bc3f 476f 2bc0 f68b a83e cb12 abbf
000002f0: 6213 bfbe fa88 5a3f f7f8 f13e f5f2 c83d
00000300: 894a dfbe 972c a2bf 5ab8 8abd 646a d8bf
00000310: cd05 a13f aef3 9dbd c715 ff3f 3332 2440
00000320: 898b b03e cd89 2abf 909d 6bbe d45f 483f
00000330: e1b8 d2bd 2057 30be 41b6 c0bf 2390 1b3f
00000340: 64a7 433f dc09 43bf d150 c1bf c0e8 cabf
00000350: 263c c8be 5c6a 543f 8ec8 853f 0715 a73f
00000360: 5282 623f 6b52 b23f c7a7 823e 4871 5f3f
00000370: 02b1 c7be 1df3 853e 0983 e03f 558a 67be
00000380: 26b4 53bf 6885 233f 7cf1 d7bd b3fe 8f3f
00000390: 2bc6 933f debb d23e ad18 bd3e efd0 553e
000003a0: 4149 883f b92c 08bf 03a9 fbbf a7d2 203f
000003b0: f72f 2fbf 8b44 46bf 267f 8fbf 56e6 ab3e
000003c0: 72ad 0040 bd22 4cbf c566 ac3e c8e9 28bd
000003d0: 018e 263f 33ed 92bf a0cd 7dbf 3447 5dbf
000003e0: 1527 593f 3707 dabf eaec 653f de87 08bf
000003f0: 6309 003e 42ee 9fbe 0c5d 6b3e 626e 363f
0.032079138 0.71986943 0.6150934 0.7003846 1.1856705 -1.1419638 0.15389521 -0.5039705
0.29716703 -0.051722117 -0.60953796 -1.2930441 -0.19756506 -0.333489 -0.6339095 0.010099233
-0.26815107 1.478088 -0.13611132 0.18822993 -0.17626019 -0.20736784 0.056069158 0.98278946
-1.5798782 1.2327818 -0.047683034 -0.10746866 -0.25850192 -0.9188464 -0.3305164 -0.77341443
-0.24255025 0.70064765 0.9018798 0.7684052 0.91414964 -1.2213794 -0.8803787 -0.11015253
-0.66369855 2.3548827 -0.68107575 -1.0214853 1.5729866 -0.24482118 -0.46942672 -0.45635206
0.4018857 1.4909873 0.0730657 0.5598547 -0.047797553 -1.189586 0.8201596 0.9886888
1.0636353 -0.1878279 -0.49302015 -2.4028764 0.013924835 0.74612164 -1.6960206 -1.2519886
-0.37792566 0.5968838 0.14085236 0.20983748 1.3220695 -0.7418906 0.6797705 -1.091858
-0.1218291 -0.90230566 0.020001957 -0.42666236 -0.62422544 -1.0566607 1.1630546 0.5088055
0.4991304 1.0792733 -1.0717239 -0.45956993 0.14857328 -0.7294331 -0.9677222 0.88340294
-0.21633108 -1.2753567 -0.3491885 -0.08413365 -0.7404248 0.60205317 -0.28678223 0.35018596
-0.28969577 -0.1088135 -1.351377 0.572088 -0.25069413 -0.51531374 0.7623487 0.44822654
-0.4018457 -0.34522545 -1.1467792 1.6084166 0.25800943 0.34367183 1.8525538 0.18187627
-0.20255016 -0.4702428 1.5457736 0.24451983 0.73613 1.3048028 1.3652318 -0.18243273
-0.96073693 0.627284 0.027835533 1.4252554 0.7907074 -0.80019796 1.063336 -0.5080471
0.99321973 1.0188503 0.1157972 -0.36649168 -0.48549715 0.43737948 -0.30496097 0.036227915
-1.0799043 -1.1131269 0.11026439 0.070874125 0.74082136 0.10032873 -0.98791945 -0.9454593
0.54544127 0.10654511 0.061520092 0.927061 -0.26294994 0.14553152 -0.4525267 0.6221161
-0.38796788 -0.7444793 -0.536113 0.06468131 -1.3624151 -0.02750128 1.491828 0.27785254
-0.9007145 -0.99310416 0.90925914 -0.29814294 -1.5577967 -0.6861649 0.50295186 -0.05425306
-0.7929783 0.9309126 1.1407566 -0.05893118 -1.176573 -0.36248106 -0.19212092 -1.3032439
-0.75087744 0.91607064 -1.7587603 0.4354885 -0.5629182 0.0032617894 -0.03652076 1.3279213
1.471835 -2.6786668 0.32919282 -1.336511 -0.37319475 0.8536526 0.47260258 0.098119654
-0.43611553 -1.2669858 -0.067734435 -1.6907468 1.2579895 -0.07712494 1.9928521 2.565564
0.34481457 -0.6661652 -0.23009324 0.7827122 -0.10289169 -0.17220736 -1.505562 0.6076681
0.7642729 -0.7618692 -1.5102788 -1.585228 -0.3910839 0.8297479 1.045183 1.3053292
0.88480103 1.3931402 0.2551863 0.8728223 -0.39002234 0.26162043 1.7539989 -0.22611363
-0.8269676 0.63875437 -0.10544106 1.1249603 1.1544851 0.41158956 0.3693289 0.20880483
1.0647355 -0.5319324 -1.9660953 0.6282143 -0.68432564 -0.7744834 -1.1210678 0.3357417
2.0105863 -0.79740506 0.33672157 -0.041238576 0.6506043 -1.1478637 -0.99141884 -0.8643677
0.8482526 -1.7033452 0.8981463 -0.53332317 0.12503581 -0.31236464 0.22984713 0.7126218

hidden.bias f4 [50]
00000000: e4b6 26bc f280 03bf 34f2 463f 0316 7cbe
00000010: bcf4 ac3f 7c32 e0bf 12d4 c63f bb3a 1ebf
00000020: 8daf dabe 2f18 74bf 384d a43e 9c95 f33e
00000030: ee19 813f 3b2e e0bf 697d 423f 4e68 3dbf
00000040: 3b0f 54bf 9bc0 223e 51a4 66bf 3e7a dc3e
00000050: e898 4dbf 80c3 13be 499a acbf e7a7 9139
00000060: 0cf4 1cbf 2ee0 923f 4792 f13f 61ef 613f
00000070: f7bf 853f 86b2 32c0 a57b 913f 496d c3be
00000080: c115 ffbf eab7 8b3e 2fb3 b7bf 0093 96be
00000090: 99bd 873f 6fcb 043e 2a00 4e3f 5061 c83e
000000a0: 686c 88bf 07e2 37bf 4ed8 3e3f c417 20bf
000000b0: 5ab7 9abf 01b0 0ebf fe00 e9bd 8b12 83bf
000000c0: 18e6 efbd d712 d73f
-0.01017544 -0.5136863 0.7771332 -0.24617772 1.3512187 -1.7515407 1.5533469 -0.61808366
-0.4271206 -0.953494 0.32090163 0.4757508 1.0086038 -1.7514108 0.7597261 -0.7398728
-0.8283574 0.15893786 -0.90094477 0.43062013 -0.8031144 -0.14430046 -1.3484584 0.00027781652
-0.61309886 1.1474664 1.8872765 0.8825589 1.0449208 -2.7921462 1.1365858 -0.38169315
-1.9928514 0.27288753 -1.4351557 -0.29409027 1.0604736 0.12968229 0.80469 0.39136744
-1.0658083 -0.71829265 0.74548805 -0.62536263 -1.2087204 -0.5573731 -0.11377142 -1.0240034
-0.11713809 1.6802624

hidden2.weight f4 [50, 50]
00000000: 695f a8bf 539b f03f 3ba4 e43f 6fed d43f
00000010: 94c0 ccbe 7560 eebf a226 833f 0a2b aebf
00000020: 8dfc a23f 3ce1 493f a48c 26c0 5779 92bd
00000030: 912d a63e 185d aebe f2ee 0c3f 4002 d5bf
00000040: 92d8 aebf e1df d4bc 830d 23bf e547 00bf
00000050: f4e2 8a3f 9271 81be b952 11bf 4d96 b7be
00000060: 5352 4a3f 0865 3a3f 504c d3bf 05ab c7be
00000070: 1ded 8dbe d6e1 bb3f c901 863f 1488 96bf
00000080: 5858 123f 70a4 93bf 08e8 413f 6a43 65bf
00000090: 5b11 483f 8643 1a3d 41fe 3fbf c879 07bf
000000a0: 0cbf 92bf c850 dd3e 923f ac3e a1a1 0ec0
000000b0: d9eb cc3f 2485 f93e 18c8 c03d f2e6 803f
000000c0: b396 7abf 0ca3 f4bf 0244 57be 0ac5 75bf
000000d0: f561 10bf 5c93 693f 2ae7 b2bf c8cf b0bf
000000e0: 1bb3 1ebd 3f7e f03e 4e76 ebbf b633 83be
000000f0: 1acb 043f 6477 c33f 731a 863e 8b44 b13d
00000100: 2c1b 973f 6147 45bf 5bb4 d53e a201 193f
00000110: 8b71 f93e c7fa d7bd e2c5 f1be 5265 433e
00000120: 5c29 b7bf dd74 18bf 7389 043f 3f3c 61bf
00000130: bd94 a03f 4f67 5bbf 588c a23d 6692 563f
00000140: 15db 1abf a89a 29bf dcf8 6bbe 8954 9c3f
00000150: d1be e43f d38f 89be e78c 89bf e83d b33e
00000160: 9f8d cd3f 17f0 d13e d221 7a3f 479c 3d3f
00000170: 038b d8bf 5422 053f f000 26bf 44ea f33f
00000180: ed4e ab3d 62cb 98be 816d 79bd 500c 73bf
00000190: c418 65bf c3ff 463f f876 073f a7e8 56bf
000001a0: 53e0 d3be 2f3e 813e 1a85 a6bf 6f0d f5be
000001b0: 5ad3 1ebf e68d ac3f 45d2 8f3d e83c 91bf
000001c0: b431 d7bf 82e4 0340 d112 e2bf b4ff 7abf
000001d0: 6089 573e 9231 2a3f d04f 6abf be5f 47bf
000001e0: 72a6 92bf cf93 793d 014e 10c0 92cb da3f
000001f0: fe61 cc3e 3ddd 183f ac76 143f 16a1 bdbf
00000200: 6f03 a03f fedd b8be 5895 9abf 4661 1a3f
00000210: 1110 a43f 7016 4b40 c918 b1bf e8cd aabd
00000220: ffe7 66bf f42d 67bf 2777 87bf c0ec 4bbe
00000230: f0b7 243f fc92 86bd 7750 0bbe 6c9c a93f
00000240: 81a6 1cbe b321 bb3f 6633 ffbd c1f6 473c
00000250: f8ea 9cbe 3604 1abf 8703 0a3f 335c 0340
00000260: f15e 8ebe 1bed 71bf fa02 25bf f0f3 1fbf
00000270: cda9 a3be 37bd 45bf d9bc 2cbe 05ff e03e
00000280: eac4 593f fa03 733e b5b0 6ebd 73e3 583f
00000290: 5c4b 61be c7d3 51bf 14c3 37c0 90ab 76bf
000002a0: 093b 0d40 a0fd 82bf 995b 063f 637d 50bf
000002b0: d0bc 4f3f 23b1 35bd ca08 003f bdb0 f4bf
000002c0: d26c 0dbf 8bc5 983f 52f3 fc3e b593 8b3f
000002d0: 737c f0bd e3eb b7bf fb74 0d3e 80d1 b1bf
000002e0: e757 49bf c28b 573f 9d89 903e e22a 183e
000002f0: 2832 8f3e 1744 5abf 3da2 bbbf 08cc bbbf
00000300: 81e2 f2bf 510e 8f3f e607 62bf 328b 0740
00000310: 2b31 db3f fd97 8dbf fe1f 8cbe cf9f 183f
00000320: 99ee cd3e 6b3d cc3f eaa1 8cbe ad37 c3bf
00000330: 3485 d1be 092d c73e 5fec 37bf 5f06 0cbf
00000340: e611 153f 25a7 e43f f9e1 5ebf 46a1 fabe
00000350: 9dc1 16bf ee38 9bbf bf51 8ebf d6d2 de3f
00000360: 95cc 2d3f 30cc a6bf 2b6f 93bf bfd0 8cbe
00000370: deb3 5f3f 97d6 08bf 6a4a b6be f95f 9dbf
00000380: 26c7 cbbf b40d 8abe 9a76 b13f 7baf bdbf
00000390: 17f4 4c3f 29f0 29bf 526f acbe c800 f1be
000003a0: 7b43 82be 75a2 913f 577b ac3f 5afc fc3e
000003b0: 03fa 413f 389f a53e 00bb a03f cdb1 92be
000003c0: e4fe bd3f d798 59bf 38d3 1ebf 5d7d f8be
000003d0: 4d6b ffbe 43b9 fd3f 3f68 2f3e ef10 bb3f
000003e0: eef2 893f 1f85 34bf 8d36 50bf caa8 983f
000003f0: 6bb2 ca3f 7062 1ebf 3cf4 5abf f5a8 17bf
-1.3154117 1.8797401 1.7862619 1.6634959 -0.39990675 -1.8623186 1.0246165 -1.3606884
1.2733322 0.78859305 -2.602334 -0.0715205 0.3245664 -0.340554 0.550521 -1.6641312
-1.3659842 -0.02598566 -0.6369249 -0.501097 1.0850511 -0.2528196 -0.5676685 -0.35856858
0.79031867 0.7281041 -1.6507664 -0.38997665 -0.27719966 1.4678295 1.0469295 -1.1760278
0.5716605 -1.1534557 0.75744677 -0.8955599 0.7815148 0.03766205 -0.74997336 -0.529202
-1.1464553 0.43225694 0.3364225 -2.228615 1.6009475 0.4873439 0.09413165 1.0070479
-0.978862 -1.9112258 -0.21022037 -0.9600378 -0.5639947 0.9124048 -1.3976796 -1.381341
-0.038745027 0.46971318 -1.8395479 -0.2562539 0.5187241 1.527081 0.26192054 0.08655652
1.1805167 -0.7706204 0.41739163 0.59768116 0.4871944 -0.10545879 -0.47221285 0.1908162
-1.4309497 -0.5955332 0.5177223 -0.87982553 1.2545391 -0.8570451 0.07936925 0.83817136
-0.6049054 -0.6625161 -0.23044151 1.2213298 1.7870733 -0.26867542 -1.0746125 0.35008168
1.6058844 0.41003487 0.97707856 0.74066585 -1.6917423 0.52005506 -0.6484518 1.9055867
0.08364663 -0.2984267 -0.060895447 -0.9494066 -0.89490914 0.7773401 0.52915907 -0.8394875
-0.41382083 0.25242755 -1.3009369 -0.47861812 -0.62041247 1.3480804 0.070225276 -1.1346712
-1.6812043 2.060822 -1.7661992 -0.9804642 0.21048498 0.6648189 -0.91528034 -0.77880466
-1.1457045 0.060931977 -2.254761 1.7093375 0.39918512 0.5971258 0.5799358 -1.4814785
1.2501048 -0.36106867 -1.2076826 0.6030468 1.2817403 3.1732445 -1.3835689 -0.08340055
-0.9019775 -0.90304494 -1.0583237 -0.19914532 0.64343166 -0.06571004 -0.13604914 1.3250861
-0.15297891 1.4619659 -0.12460975 0.012204827 -0.30648017 -0.60162675 0.5391163 2.0525024
-0.2780681 -0.9450242 -0.64457667 -0.62481594 -0.31965485 -0.77241844 -0.16868915 0.43944564
0.8506609 0.23731986 -0.05827399 0.8472206 -0.22001404 -0.8196377 -2.8712816 -0.96355534
2.2067282 -1.023365 0.52483517 -0.81441325 0.8114748 -0.044358384 0.5001341 -1.9116436
-0.5524417 1.1935285 0.4940439 1.0904452 -0.11742487 -1.4368862 0.13814156 -1.3892059
-0.78649753 0.8419763 0.2822999 0.14860108 0.27967954 -0.85260147 -1.4658886 -1.467164
-1.8975374 1.1176244 -0.882933 2.1178708 1.712438 -1.1062008 -0.27368158 0.5961885
0.40221098 1.5956243 -0.2746728 -1.5251366 -0.40921938 0.38901547 -0.7184505 -0.5469722
0.58230436 1.7863508 -0.87063557 -0.48951167 -0.5888918 -1.2126749 -1.1118697 1.7408092
0.6789029 -1.3031063 -1.1518301 -0.2750301 0.8738383 -0.5345244 -0.35603648 -1.2294914
-1.592015 -0.2696358 1.3864319 -1.4819177 0.8005995 -0.6638208 -0.3367868 -0.4707091
-0.2544211 1.1377703 1.347514 0.4941128 0.7577211 0.32348037 1.2557068 -0.28651276
1.4843411 -0.8499884 -0.62041044 -0.48533145 -0.49886551 1.9822162 0.1712961 1.4614543
1.0777261 -0.70515627 -0.8133324 1.192651 1.5835699 -0.61868954 -0.8552892 -0.5924218

hidden2.bias f4 [50]
00000000: bcbd 90bf d023 56be 591a a0bf a322 cc3f
00000010: 575b 33bf 5e0f 883f 400a c6be 5019 163d
00000020: 84a9 363f 985b ab3f c013 73bd 6f7e 87bf
00000030: fc08 b33f 1826 20bf 3444 84bc 4101 19bf
00000040: 900d 023f cda8 873e 26a8 c63e 3bbf e03f
00000050: 587e b83d 6543 91be 8d82 8c3f 5d5f b8bc
00000060: e574 33bf 47a0 65bf 055c 55bf 17cf dfbf
00000070: 8cc0 a63f 7243 373f d83f 07bf fde5 083f
00000080: e6b0 a2bf 39b5 d13d b716 9abf a5a3 aabe
00000090: 84f7 3dbf 66b1 723f bd6f 22bf f39d 1bbf
000000a0: c1ee 9b3f 62b2 c43e 635c 70bd ea18 af3e
000000b0: 51d3 04be 49a2 6cbf 3e0c 893f 36e9 1b3f
000000c0: adee 363f 3947 c83e
-1.1307902 -0.20912099 -1.2508041 1.594807 -0.7006125 1.062969 -0.38679695 0.036645234
0.7135241 1.3387327 -0.059345007 -1.058546 1.3987117 -0.62558126 -0.016145803 -0.5976754
0.50801945 0.26495972 0.38800162 1.7558359 0.09008473 -0.2837173 1.0977341 -0.02250641
-0.7010024 -0.8969769 -0.83343536 -1.7485074 1.3027511 0.7158729 -0.5283179 0.53475934
-1.2710235 0.102396436 -1.2038182 -0.33327976 -0.74205804 0.9480194 -0.6345175 -0.60787886
1.2182237 0.38417345 -0.058681857 0.34198695 -0.12971236 -0.9243513 1.0706861 0.60902727
0.7145794 0.3911684

output.weight f4 [4, 50]
00000000: 5a17 84bf f533 03bf f1a2 6e3f ac11 303f
00000010: 2430 e83f 23eb 77bf a17d 573f ea31 063f
00000020: aadc 0fbf e37f 09be f35b 483f 2c38 f73e
00000030: 5cda 2640 d1b4 583f 386b 003f baa8 8cbf
00000040: dd1d 2b3f 4175 92bd da21 13be 4b5c 16c0
00000050: 8393 b33e 678f b2bf 3d5a e33d df08 023f
00000060: 6160 873d 0d9b 6d3d 7d80 40be 01b0 513f
00000070: 2ec7 40be 1ca3 d5be 2786 fe3e 7875 babd
00000080: 7209 6b3e d9f8 e93e c498 49bf 0495 a63f
00000090: 36b4 adbf 0647 6bbd aafc c53f c38b 31bf
000000a0: a9ab 1b3e 9a4e a73f b743 98bf fbfb efbd
000000b0: 2bab 06bf 9e7f 533e 3ff2 4ec0 e781 76bd
000000c0: 5a21 b23f 12f9 6cbe 8c56 e7bd 04f6 843d
000000d0: 6a7f 02bf 0c25 77be 6e11 86bf 5436 f1bf
000000e0: 2b46 65bf 69b6 513e be5f 0fc0 e157 ea3d
000000f0: 007c 20bf 1f50 d73d 63b9 c2bf e46b 583f
00000100: 4b31 653f cd55 073e a780 70bf 755d b5bf
00000110: dd5f cebe 2cdf a3be 4b0b f83e cb3e 893f
00000120: 4f41 9e3f e102 97be 9e37 9dbd 2fe9 a63f
00000130: d010 263e 29ec bf3e 91a9 ac3e 8aa7 9ebf
00000140: 25c4 8b3f 185b 26bf 9199 04c0 6c6c 2abf
00000150: 78f5 bcbf edbf 9ebc 4e7d 893d 4e0c 9dbf
00000160: 1fdd 3abf 8cc6 a1bf 495c 3abf d73d 0abf
00000170: 0e16 e7be e9d3 e63e eec5 bdbe bdc2 c2bf
00000180: 9744 3a3f 24bc 4a3f 6d55 95bf b84c 95bf
00000190: 0411 36bf f753 0240 6b58 00be 3d89 b43c
000001a0: 134a d43f 28f7 8d3f 720e 8c3f 4d3e 30bf
000001b0: 26fd 133e 94df 473e d142 b33d 6557 ee3d
000001c0: 12f5 f9be 15bb 823e 818e febe 4ea1 24c0
000001d0: 2eeb a53e 40d9 1bbf f824 843f 31ff 223f
000001e0: 337d c4bf 2655 87bd 829b 073f 07af e7bf
000001f0: 22d1 9f3f fea9 9d3f c6b2 9dbf fdd2 30be
00000200: 3d13 1d3e b4a8 8abf fb64 d03d 7cf2 b1be
00000210: c542 933e 6055 0040 701a a63f 69c1 19bf
00000220: 62be 1d3e 1ad1 8d3f 58d0 71bf f407 753e
00000230: 2926 fa3e 6667 d3bf d9cc 14c0 bcd9 a03f
00000240: a8e6 aebf 567a 3dbf 1b0c ecbf 0933 3f3f
00000250: 90e6 553f c6dc 2abf 73fc a4be d305 b33e
00000260: dd51 803f 5fe9 1d3e 45dc 913f d49d 11bf
00000270: 6dae b1bd 74db 8abd e95c a83f 782a b9bf
00000280: 5f47 863e 3b9c 733d 6671 933f 7837 acbf
00000290: bcd4 e23f 11f5 1bbf 8704 3cbe c0a1 f8be
000002a0: 311e 443f ee86 6cbf 4b88 8b3f d3df 5dbd
000002b0: d327 2f3f b3cd e23f a114 8a3e a141 3d3f
000002c0: c9a9 a7bf 8e33 72be 79e1 d9bd 2724 15bf
000002d0: 26ad b0bf 9b4f 0f3f 6458 e63d 2253 f03e
000002e0: 9864 05bf 1202 f8bf 3fcd 5d3f e894 88bc
000002f0: 7e12 1f3f 5f7d 393f 47a1 833f f89d b7bf
00000300: 4424 27bf 2ece 92bf 1e69 ae3f fac7 81bd
00000310: dc56 833e a1ab 70bf 60c1 fdbe e414 873f
-1.0319626 -0.51251155 0.9321738 0.68776965 1.8139691 -0.96843165 0.8417607 0.5241991
-0.5619608 -0.13427691 0.78265303 0.48285043 2.6070776 0.84650904 0.501636 -1.0988991
0.6684244 -0.07151271 -0.14368382 -2.349383 0.3507348 -1.3950013 0.11101196 0.50794786
0.0661018 0.058009196 -0.18799014 0.81909186 -0.18825981 -0.41726005 0.49711725 -0.09104437
0.22952822 0.45697668 -0.78748727 1.3014226 -1.3570621 -0.05744078 1.5467732 -0.69353884
0.15202202 1.3070862 -1.1895665 -0.11717983 -0.5260493 0.20654151 -3.2335355 -0.06018248
1.3916428 -0.23141888 -0.112958044 0.06492236 -0.5097567 -0.24135226 -1.0474069 -1.8844705
-0.8956019 0.2047974 -2.2402186 0.11442543 -0.6268921 0.10513329 -1.5212826 0.8453963
0.8952834 0.13216324 -0.9394631 -1.4169146 -0.40307513 -0.32006204 0.48446116 1.0722288
1.2363681 -0.29494384 -0.07676624 1.3039912 0.16217351 0.37484863 0.3372312 -1.2394879
1.0919234 -0.6498275 -2.071873 -0.6657169 -1.4762411 -0.019378627 0.06713353 -1.226938
-0.72993654 -1.2638717 -0.72797066 -0.5400061 -0.45134014 0.4508355 -0.3706507 -1.521568
0.7276091 0.7919333 -1.1666695 -1.1664038 -0.71119714 2.0363748 -0.12533729 0.022038097
1.6585106 1.1091051 1.0941908 -0.68845063 0.14452037 0.19518882 0.087529786 0.11637763
-0.48819786 0.25533357 -0.49718097 -2.5723453 0.3240599 -0.6087837 1.0323782 0.6367064
-1.5350708 -0.06608038 0.5297166 -1.8100289 1.2485697 1.2317502 -1.2320182 -0.17267986
0.1533937 -1.0832734 0.101755105 -0.34755313 0.2876188 2.0052109 1.2976818 -0.60060745
0.15404657 1.1079438 -0.9445853 0.23928815 0.4885724 -1.651593 -2.325003 1.2566447
-1.3664141 -0.74014795 -1.8441194 0.7468725 0.83554935 -0.66743124 -0.32223853 0.3496538
1.0024983 0.15421055 1.1395346 -0.5688145 -0.08675847 -0.067801386 1.3153354 -1.4466085
0.26226327 0.059475165 1.1518981 -1.3454428 1.7721171 -0.60920817 -0.18361102 -0.48560905
0.7660857 -0.92393386 1.0900968 -0.054168534 0.6842014 1.7719024 0.26968864 0.73928267
-1.3098689 -0.23652479 -0.106387086 -0.5825829 -1.3802841 0.55980843 0.11247328 0.46938425
-0.5210662 -1.9375632 0.86641306 -0.016672567 0.6213759 0.72456926 1.0283593 -1.4345083
-0.6528971 -1.1469171 1.3625829 -0.063369706 0.25652206 -0.94011885 -0.49561596 1.055325

output.bias f4 [4]
00000000: c98e dd3e 4817 1fbf fcb2 c53e b43c c8be
0.43273 -0.621449 0.38613117 -0.39108813
